{
    "format": "layers-model",
    "generatedBy": "keras v2.15.0",
    "convertedBy": "TensorFlow.js Converter v4.17.0",
    "modelTopology": {
        "keras_version": "2.15.0",
        "backend": "tensorflow",
        "model_config": {
            "class_name": "Functional",
            "config": {
                "name": "model_1",
                "trainable": true,
                "layers": [
                    {
                        "class_name": "InputLayer",
                        "config": {
                            "batch_input_shape": [
                                null,
                                74
                            ],
                            "dtype": "float32",
                            "sparse": false,
                            "ragged": false,
                            "name": "input_2"
                        },
                        "name": "input_2",
                        "inbound_nodes": []
                    },
                    {
                        "class_name": "InputLayer",
                        "config": {
                            "batch_input_shape": [
                                null,
                                2048
                            ],
                            "dtype": "float32",
                            "sparse": false,
                            "ragged": false,
                            "name": "input_1"
                        },
                        "name": "input_1",
                        "inbound_nodes": []
                    },
                    {
                        "class_name": "Embedding",
                        "config": {
                            "name": "embedding_1",
                            "trainable": false,
                            "dtype": "float32",
                            "batch_input_shape": [
                                null,
                                null
                            ],
                            "input_dim": 5349,
                            "output_dim": 200,
                            "embeddings_initializer": {
                                "module": "keras.initializers",
                                "class_name": "RandomUniform",
                                "config": {
                                    "minval": -0.05,
                                    "maxval": 0.05,
                                    "seed": null
                                },
                                "registered_name": null
                            },
                            "embeddings_regularizer": null,
                            "activity_regularizer": null,
                            "embeddings_constraint": null,
                            "mask_zero": true,
                            "input_length": null
                        },
                        "name": "embedding_1",
                        "inbound_nodes": [
                            [
                                [
                                    "input_2",
                                    0,
                                    0,
                                    {}
                                ]
                            ]
                        ]
                    },
                    {
                        "class_name": "Dropout",
                        "config": {
                            "name": "dropout_1",
                            "trainable": true,
                            "dtype": "float32",
                            "rate": 0.2,
                            "noise_shape": null,
                            "seed": null
                        },
                        "name": "dropout_1",
                        "inbound_nodes": [
                            [
                                [
                                    "input_1",
                                    0,
                                    0,
                                    {}
                                ]
                            ]
                        ]
                    },
                    {
                        "class_name": "Dropout",
                        "config": {
                            "name": "dropout_2",
                            "trainable": true,
                            "dtype": "float32",
                            "rate": 0.2,
                            "noise_shape": null,
                            "seed": null
                        },
                        "name": "dropout_2",
                        "inbound_nodes": [
                            [
                                [
                                    "embedding_1",
                                    0,
                                    0,
                                    {}
                                ]
                            ]
                        ]
                    },
                    {
                        "class_name": "Dense",
                        "config": {
                            "name": "dense_1",
                            "trainable": true,
                            "dtype": "float32",
                            "units": 256,
                            "activation": "relu",
                            "use_bias": true,
                            "kernel_initializer": {
                                "module": "keras.initializers",
                                "class_name": "VarianceScaling",
                                "config": {
                                    "scale": 1.0,
                                    "mode": "fan_avg",
                                    "distribution": "uniform",
                                    "seed": null
                                },
                                "registered_name": null
                            },
                            "bias_initializer": {
                                "module": "keras.initializers",
                                "class_name": "Zeros",
                                "config": {},
                                "registered_name": null
                            },
                            "kernel_regularizer": null,
                            "bias_regularizer": null,
                            "activity_regularizer": null,
                            "kernel_constraint": null,
                            "bias_constraint": null
                        },
                        "name": "dense_1",
                        "inbound_nodes": [
                            [
                                [
                                    "dropout_1",
                                    0,
                                    0,
                                    {}
                                ]
                            ]
                        ]
                    },
                    {
                        "class_name": "LSTM",
                        "config": {
                            "name": "lstm_1",
                            "trainable": true,
                            "dtype": "float32",
                            "return_sequences": false,
                            "return_state": false,
                            "go_backwards": false,
                            "stateful": false,
                            "unroll": false,
                            "time_major": false,
                            "units": 256,
                            "activation": "tanh",
                            "recurrent_activation": "sigmoid",
                            "use_bias": true,
                            "kernel_initializer": {
                                "module": "keras.initializers",
                                "class_name": "VarianceScaling",
                                "config": {
                                    "scale": 1.0,
                                    "mode": "fan_avg",
                                    "distribution": "uniform",
                                    "seed": null
                                },
                                "registered_name": null
                            },
                            "recurrent_initializer": {
                                "module": "keras.initializers",
                                "class_name": "Orthogonal",
                                "config": {
                                    "gain": 1.0,
                                    "seed": null
                                },
                                "registered_name": null
                            },
                            "bias_initializer": {
                                "module": "keras.initializers",
                                "class_name": "Zeros",
                                "config": {},
                                "registered_name": null
                            },
                            "unit_forget_bias": true,
                            "kernel_regularizer": null,
                            "recurrent_regularizer": null,
                            "bias_regularizer": null,
                            "activity_regularizer": null,
                            "kernel_constraint": null,
                            "recurrent_constraint": null,
                            "bias_constraint": null,
                            "dropout": 0.0,
                            "recurrent_dropout": 0.0,
                            "implementation": 2
                        },
                        "name": "lstm_1",
                        "inbound_nodes": [
                            [
                                [
                                    "dropout_2",
                                    0,
                                    0,
                                    {}
                                ]
                            ]
                        ]
                    },
                    {
                        "class_name": "Add",
                        "config": {
                            "name": "add_1",
                            "trainable": true,
                            "dtype": "float32"
                        },
                        "name": "add_1",
                        "inbound_nodes": [
                            [
                                [
                                    "dense_1",
                                    0,
                                    0,
                                    {}
                                ],
                                [
                                    "lstm_1",
                                    0,
                                    0,
                                    {}
                                ]
                            ]
                        ]
                    },
                    {
                        "class_name": "Dense",
                        "config": {
                            "name": "dense_2",
                            "trainable": true,
                            "dtype": "float32",
                            "units": 256,
                            "activation": "relu",
                            "use_bias": true,
                            "kernel_initializer": {
                                "module": "keras.initializers",
                                "class_name": "VarianceScaling",
                                "config": {
                                    "scale": 1.0,
                                    "mode": "fan_avg",
                                    "distribution": "uniform",
                                    "seed": null
                                },
                                "registered_name": null
                            },
                            "bias_initializer": {
                                "module": "keras.initializers",
                                "class_name": "Zeros",
                                "config": {},
                                "registered_name": null
                            },
                            "kernel_regularizer": null,
                            "bias_regularizer": null,
                            "activity_regularizer": null,
                            "kernel_constraint": null,
                            "bias_constraint": null
                        },
                        "name": "dense_2",
                        "inbound_nodes": [
                            [
                                [
                                    "add_1",
                                    0,
                                    0,
                                    {}
                                ]
                            ]
                        ]
                    },
                    {
                        "class_name": "Dense",
                        "config": {
                            "name": "dense_3",
                            "trainable": true,
                            "dtype": "float32",
                            "units": 5349,
                            "activation": "softmax",
                            "use_bias": true,
                            "kernel_initializer": {
                                "module": "keras.initializers",
                                "class_name": "VarianceScaling",
                                "config": {
                                    "scale": 1.0,
                                    "mode": "fan_avg",
                                    "distribution": "uniform",
                                    "seed": null
                                },
                                "registered_name": null
                            },
                            "bias_initializer": {
                                "module": "keras.initializers",
                                "class_name": "Zeros",
                                "config": {},
                                "registered_name": null
                            },
                            "kernel_regularizer": null,
                            "bias_regularizer": null,
                            "activity_regularizer": null,
                            "kernel_constraint": null,
                            "bias_constraint": null
                        },
                        "name": "dense_3",
                        "inbound_nodes": [
                            [
                                [
                                    "dense_2",
                                    0,
                                    0,
                                    {}
                                ]
                            ]
                        ]
                    }
                ],
                "input_layers": [
                    [
                        "input_1",
                        0,
                        0
                    ],
                    [
                        "input_2",
                        0,
                        0
                    ]
                ],
                "output_layers": [
                    [
                        "dense_3",
                        0,
                        0
                    ]
                ]
            }
        },
        "training_config": {
            "loss": "categorical_crossentropy",
            "metrics": [
                []
            ],
            "weighted_metrics": null,
            "loss_weights": null,
            "optimizer_config": {
                "class_name": "Adam",
                "config": {
                    "name": "Adam",
                    "learning_rate": 0.0010000000474974513,
                    "decay": 0.0,
                    "beta_1": 0.8999999761581421,
                    "beta_2": 0.9990000128746033,
                    "epsilon": 1e-07,
                    "amsgrad": false
                }
            }
        }
    },
    "weightsManifest": [
        {
            "paths": [
                "group1-shard1of4.bin",
                "group1-shard2of4.bin",
                "group1-shard3of4.bin",
                "group1-shard4of4.bin"
            ],
            "weights": [
                {
                    "name": "dense_1/kernel",
                    "shape": [
                        2048,
                        256
                    ],
                    "dtype": "float32"
                },
                {
                    "name": "dense_1/bias",
                    "shape": [
                        256
                    ],
                    "dtype": "float32"
                },
                {
                    "name": "dense_2/kernel",
                    "shape": [
                        256,
                        256
                    ],
                    "dtype": "float32"
                },
                {
                    "name": "dense_2/bias",
                    "shape": [
                        256
                    ],
                    "dtype": "float32"
                },
                {
                    "name": "dense_3/kernel",
                    "shape": [
                        256,
                        5349
                    ],
                    "dtype": "float32"
                },
                {
                    "name": "dense_3/bias",
                    "shape": [
                        5349
                    ],
                    "dtype": "float32"
                },
                {
                    "name": "embedding_1/embeddings",
                    "shape": [
                        5349,
                        200
                    ],
                    "dtype": "float32"
                },
                {
                    "name": "lstm_1/lstm_cell/kernel",
                    "shape": [
                        200,
                        1024
                    ],
                    "dtype": "float32"
                },
                {
                    "name": "lstm_1/lstm_cell/recurrent_kernel",
                    "shape": [
                        256,
                        1024
                    ],
                    "dtype": "float32"
                },
                {
                    "name": "lstm_1/lstm_cell/bias",
                    "shape": [
                        1024
                    ],
                    "dtype": "float32"
                }
            ]
        }
    ]
}
